models/best_model.pth (torch, 608866 bytes, 34 tensors)

conv1.0.weight f4 [32, 3, 3, 3]
0.04823704 -0.16801299 -0.06508097 0.17262703 0.09713189 0.01076083 -0.099053316 -0.08832811
-0.14575228 -0.06853445 0.069002576 0.12904425 0.098698236 -0.14236093 -0.09253772 -0.009748867
0.2113454 0.052025694 -0.05564379 0.08557987 -0.06634273 -0.11043597 0.1642737 -0.06437262
-0.023059668 -0.15881747 0.15085544 0.16921426 0.11732547 -0.112101026 -0.153377 -0.09348213
0.17127006 0.115026034 0.18477558 0.094415545 0.07403027 0.04855765 -0.123672396 -0.13546643
-0.114153065 0.10675017 -0.07276849 -0.018804746 -0.11684673 -0.009674747 -0.079660915 -0.102058835
0.09031776 0.0006050286 0.14589767 -0.036289845 -0.11901289 -0.041793935 -0.06003604 -0.030891305
-0.16077536 0.13933866 -0.106359705 0.11440777 0.104836844 0.14552085 -0.1368755 0.16437276
-0.06487341 0.08724132 0.20841932 -0.002281739 0.017531233 -0.020246483 -0.14388874 0.09853613
-0.15657233 0.14117968 0.15752693 0.21047713 -0.021366587 -0.13337952 0.06373352 0.11486672
-0.17732811 -0.020658124 -0.09515905 -0.052510034 -0.0346958 -0.034567453 -0.086570874 -0.1555096
0.1397385 0.1201577 -0.008163586 -0.02192736 -0.10997451 -0.09960201 -0.1260826 0.039726473
-0.0886115 -0.1263198 -0.051558692 -0.033625286 -0.04937338 -0.031127268 0.014793916 -0.01879247
-0.11725599 -0.13149844 0.14179261 -0.110558495 0.064900436 -0.047365922 0.030457024 0.18398608
0.09339588 -0.15805669 0.0694713 0.17525882 0.046170436 0.14334686 0.2079285 -0.015971228
0.043842416 -0.12714621 -0.03187583 0.13528794 0.091822274 -0.12611641 -0.14223999 -0.11386396
-0.17536081 -0.14547192 -0.043044686 0.13655624 0.023086462 -0.15613456 -0.15952627 0.109208405
-0.12869427 -0.0065904497 0.10262124 -0.079332456 -0.0078112097 -0.008248275 -0.03562603 -0.08708291
-0.16042244 -0.14233789 -0.08582804 0.1964365 -0.082555555 -0.11618305 0.056286488 0.06425029
0.117645554 0.16067387 0.12603116 -0.17247923 0.027613562 0.12834191 -0.0018561279 -0.105574615
0.19521867 -0.060209904 -0.10952335 -0.17479405 0.006080312 0.085244454 0.04430638 0.041043773
-0.14198248 -0.17686406 0.006220409 0.17638293 0.10956504 -0.1141926 -0.024061691 -0.14051633
-0.090161666 0.039888203 0.108634554 0.16274363 -0.17606936 0.12766537 -0.13824105 0.07253596
0.16467917 0.0055318857 0.18069243 -0.16066454 -0.0709318 0.10585276 -0.044937722 -0.04104422
-0.09147757 0.1266456 0.0953503 0.046649054 -0.120605506 -0.16263573 0.013590687 0.053195495
-0.09143269 -0.06527176 0.12472201 0.016535552 -0.0068092896 -0.059775006 -0.18077737 -0.18951902
-0.097625874 -0.09992079 0.04936309 -0.062439986 -0.07503528 0.16924824 0.05598904 0.13218313
-0.08278908 -0.07193344 0.086069904 -0.105728865 -0.11114318 0.008493751 -0.051235504 -0.122285776
0.13547574 0.16410717 0.036749963 -0.016914079 -0.15216754 -0.05552509 0.067490086 0.10525745
-0.0047410536 -0.054029543 0.1181202 -0.1473778 0.1373841 -0.053606793 0.016381007 -0.018186757
0.041840542 -0.03733591 0.16034704 -0.010157896 0.14021981 0.17751378 -0.099832974 -0.14942981
0.1489717 0.14356697 -0.15358321 -0.014572291 -0.19483481 -0.16667685 0.029933529 0.045040406
00000000: 3494 453d 990b 2cbe 2c49 85bd 24c5 303e
00000010: 16ed c63d 314e 303c 77dc cabd 5ee5 b4bd
00000020: 1640 15be ca5b 8cbd 3951 8d3d 2d24 043e
00000030: 4d22 ca3d 10c7 11be 6b84 bdbd b6b9 1fbc
00000040: ee6a 583e e518 553d beea 63bd 8044 af3d
00000050: b2de 87bd 412c e2bd 5d37 283e cbd5 83bd
00000060: a1e7 bcbc 0ca1 22be d979 1a3e 8146 2d3e
00000070: 5648 f03d 3995 e5bd dc0e 1dbe 8f73 bfbd
00000080: 6b61 2f3e c592 eb3d cf35 3d3e f05c c13d
00000090: 2f9d 973d 63e4 463d f447 fdbd b6b7 0abe
000000a0: 15c9 e9bd d59f da3d a507 95bd 690c 9abc
000000b0: 574d efbd d482 1ebc 4325 a3bd 3904 d1bd
000000c0: 85f8 b83d c89a 1e3a 3366 153e a9a4 14bd
000000d0: 08bd f3bd 1e30 2bbd 5ae8 75bd c30f fdbc
000000e0: 4ca2 24be cbae 0e3e 1ed3 d9bd 9f4e ea3d
000000f0: b3b4 d63d 6b03 153e 1729 0cbe 5551 283e
00000100: 5adc 84bd 94ab b23d e06b 553e 3a89 15bb
00000110: a99d 8f3c f4db a5bc 9257 13be 4fcd c93d
00000120: 7f54 20be 6891 103e bd4e 213e 5187 573e
00000130: fb08 afbc a494 08be b886 823d 3e3f eb3d
00000140: 8095 35be 3a3b a9bc bfe2 c2bd c314 57bd
00000150: 2f1d 0ebd 9a96 0dbd 124c b1bd e93d 1fbe
00000160: 9c17 0f3e 3d15 f63d 90c0 05bc 02a1 b3bc
00000170: 513a e1bd 23fc cbbd cc1b 01be 3ab8 223d
00000180: f279 b5bd fa59 01be 352f 53bd abba 09bd
00000190: be3b 4abd 9dfe febc 2e62 723c abf2 99bc
000001a0: e923 f0bd 87a7 06be 1532 113e 7e6c e2bd
000001b0: 85ea 843d c502 42bd 0281 f93c d966 3c3e
000001c0: 5746 bf3d 9dd9 21be f846 8e3d 0c77 333e
000001d0: 361d 3d3d 85c9 123e 35eb 543e 18d6 82bc
000001e0: 1b94 333d 9e32 02be 3b90 02bd ec88 0a3e
000001f0: 510d bc3d a924 01be 5ca7 11be 8231 e9bd
00000200: c991 33be 97f6 14be a04f 30bd 66d5 0b3e
00000210: d21f bd3c bde1 1fbe db5a 23be a8a8 df3d
00000220: 6ec8 03be b3f4 d7bb 162b d23d 0e79 a2bd
00000230: 2df5 ffbb c623 07bc 9aec 11bd 8658 b2bd
00000240: c845 24be 06c1 11be 9dc6 afbd a626 493e
00000250: e312 a9bd 61f1 edbd a98c 663d a895 833d
00000260: 27f0 f03d b187 243e 500e 013e 659e 30be
00000270: d635 e23c 106c 033e 5149 f3ba 8137 d8bd
00000280: 67e7 473e a99e 76bd c74d e0bd 36fd 32be
00000290: 5b3d c73b a594 ae3d 9b7a 353d 841d 283d
000002a0: db63 11be da1b 35be 93d4 cb3b ba9d 343e
000002b0: a363 e03d cfdd e9bd 061d c5bc 83e3 0fbe
000002c0: aea6 b8bd d061 233d cb7b de3d 44a6 263e
000002d0: 874b 34be b6ba 023e 108f 0dbe bc8d 943d
000002e0: a8a1 283e d244 b53b 7007 393e 3f85 24be
000002f0: b144 91bd 55c9 d83d 9e10 38bd fc1d 28bd
00000300: 9858 bbbd 62af 013e 0547 c33d 1413 3f3d
00000310: 0500 f7bd fb89 26be 79ab 5e3c 85e3 593d
00000320: 1041 bbbd 33ad 85bd 416e ff3d 9175 873c
00000330: 7620 dfbb a3d6 74bd b41d 39be 4611 42be
00000340: 13f0 c7bd 45a3 ccbd f430 4a3d 12c1 7fbd
00000350: 19ac 99bd 694f 2d3e c354 653d 045b 073e
00000360: 528d a9bd d751 93bd 6b45 b03d 6088 d8bd
00000370: 099f e3bd 6029 0b3c 52dc 51bd f770 fabd
00000380: 27ba 0a3e b60b 283e 2187 163d 658f 8abc
00000390: cfd1 1bbe 476e 63bd 3e38 8a3d 3891 d73d
000003a0: d75a 9bbb 154e 5dbd 01e9 f13d 35ea 16be
000003b0: 6bae 0c3e cc92 5bbd 7631 863c 65fc 94bc
000003c0: fd60 2b3d 8aed 18bd 0432 243e 4e6d 26bc
000003d0: c895 0f3e 2cc6 353e 3b75 ccbd 2104 19be
000003e0: 0a8c 183e 3803 133e eb44 1dbe 9ec0 6ebc
000003f0: c782 47be 56ad 2abe 2937 f53c 4a7c 383d

conv1.0.bias f4 [32]
-2.179428e-05 -0.0002661085 1.5449656e-05 -3.0699284e-06 -8.407783e-05 1.235023e-05 -7.1201095e-05 -5.5292676e-06
5.6493077e-06 -3.308977e-05 -3.2424352e-05 -1.709014e-05 6.187906e-05 9.062093e-05 -4.091646e-05 3.9748236e-05
-0.00012745606 -2.1840262e-05 -5.695951e-05 -3.0405208e-06 2.4796258e-05 -4.282638e-05 -6.4374926e-06 4.754228e-05
1.0013806e-05 -2.5788686e-06 -0.00020443245 4.7043027e-06 -3.2839805e-05 -1.1536877e-05 -1.45227295e-05 -6.143922e-05
00000000: dcd2 b6b7 7a84 8bb9 e299 8137 f804 4eb6
00000010: f152 b0b8 d533 4f37 cc51 95b8 0c88 b9b6
00000020: 2f8f bd36 dfc9 0ab8 62ff 07b8 cc5c 8fb7
00000030: 11c5 8138 be0b be38 b79d 2bb8 58b7 2638
00000040: baa5 05b9 9b35 b7b7 cfe7 6eb8 c00b 4cb6
00000050: 8f01 d037 7aa0 33b8 a401 d8b6 2268 4738
00000060: f800 2837 a010 2db6 eb5c 56b9 a7d9 9d36
00000070: 79bd 09b8 828e 41b7 a6a6 73b7 eed8 80b8

conv1.1.weight f4 [32]
1.0098565 1.0083594 1.0007308 0.9933797 0.988541 0.9944972 1.0100507 0.98569125
0.98388666 0.99140996 0.9956095 0.9928361 1.0167853 0.99494237 0.98766947 1.0196879
0.98274624 0.9819198 0.9918873 0.98293215 0.9951406 0.9922263 0.97177327 0.9778735
0.9939992 0.99552685 0.98964083 0.9751968 0.9721283 0.99171865 0.9815642 1.0077982
00000000: fa42 813f ec11 813f f217 803f 224e 7e3f
00000010: 0611 7d3f 5e97 7e3f 5749 813f 4356 7c3f
00000020: ffdf 7b3f 0bcd 7d3f 44e0 7e3f 822a 7e3f
00000030: 0526 823f 8bb4 7e3f e8d7 7c3f 2285 823f
00000040: 4295 7b3f 195f 7b3f 53ec 7d3f 71a1 7b3f
00000050: 89c1 7e3f 8b02 7e3f 22c6 783f eb55 7a3f
00000060: bb76 7e3f d9da 7e3f 1a59 7d3f 7fa6 793f
00000070: 66dd 783f 46e1 7d3f cb47 7b3f 88ff 803f

conv1.1.bias f4 [32]
0.029896405 -0.00016669168 -0.0038099717 0.025168158 0.012460651 0.00091282354 0.017651586 0.0014125893
-0.011107666 0.0003629831 0.012257037 0.0021170045 0.03294612 0.008895126 0.023543695 0.034861647
0.00014812266 -0.011213579 0.0018929583 -0.013645636 0.009604526 -0.0060888147 -0.007295386 0.01769872
-0.0068402225 0.005055007 -0.007967617 -0.0055505056 -0.01529795 0.0060238973 -0.003491489 -0.015600502
00000000: 4ee9 f43c f5c9 2eb9 b8b0 79bb 742d ce3c
00000010: c227 4c3c 8d4a 6f3a 0f9a 903c a226 b93a
00000020: eefc 35bc c44e be39 bdd1 483c 71bd 0a3b
00000030: 83f2 063d ddbc 113c b5de c03c 16cb 0e3d
00000040: 6051 1b39 29b9 37bc 241d f83a f291 5fbc
00000050: 4d5c 1d3c ae84 c7bb 220e efbb e8fc 903c
00000060: f223 e0bb 79a4 a53b 9c8a 02bc 04e1 b5bb
00000070: 41a4 7abc 1d64 c53b 77d1 64bb 3f99 7fbc

conv1.1.running_mean f4 [32]
0.020884864 -0.0906058 -0.086221255 0.22271971 -0.22614641 0.07550797 0.09533227 0.07516302
0.092546776 -0.0043879226 -0.16398242 -0.043338418 -0.1255252 -0.118984886 -0.05630283 -0.05386481
0.24362536 -0.088198006 -0.18364733 0.01698923 -0.24479498 -0.0638312 0.09834935 -0.010706195
-0.21099055 -0.17233238 -0.2435999 0.13307674 0.13846342 -0.06740993 0.1679203 0.010745576
00000000: bc16 ab3c 898f b9bd c594 b0bd a310 643e
00000010: ed92 67be eca3 9a3d 913d c33d 12ef 993d
00000020: 2a89 bd3d 90c8 8fbb 02eb 27be a083 31bd
00000030: ae89 00be 59ae f3bd cc9d 66bd 59a1 5cbd
00000040: ed78 793e 28a1 b4bd 0c0e 3cbe ff2c 8b3c
00000050: 89ab 7abe efb9 82bd 626b c93d 0969 2fbc
00000060: e80d 58be e677 30be 4172 79be 4545 083e
00000070: 5bc9 0d3e 380e 8abd 4df3 2b3e 360e 303c

conv1.1.running_var f4 [32]
0.014847301 0.031926975 0.8044943 2.7995167 0.15499851 0.19938067 0.10685401 0.3659692
0.10308044 0.25612995 2.467524 0.06978207 1.8436043 0.08131572 0.20669332 0.11897962
0.9581085 0.10644172 0.74431586 0.2938455 1.1833034 0.72671235 0.23686752 0.6452543
3.7228503 0.95814633 2.2824466 0.3798135 0.091769226 0.3593741 1.5714198 0.06906829
00000000: 1842 733c dcc5 023d 57f3 4d3f 482b 3340
00000010: eeb7 1e3e 722a 4c3e 46d6 da3d 5160 bb3e
00000020: d61b d33d 7723 833e eaeb 1d40 e7e9 8e3d
00000030: 3afb eb3f db88 a63d 6aa7 533e 96ab f33d
00000040: 9946 753f 1efe d93d 7c8b 3e3f eb72 963e
00000050: 7c76 973f d209 3a3f 668d 723e 632f 253f
00000060: 2e43 6e40 1449 753f 9b13 1240 ea76 c23e
00000070: 81f1 bb3d e2ff b73e 4924 c93f ad73 8d3d

conv2.0.weight f4 [32, 32, 3, 3]
-0.01209776 -0.04743456 0.023548948 0.010236276 0.021769792 -0.05941866 0.023124566 -0.053034592
0.033463612 -0.050016236 0.008062506 -0.004973701 -0.0073513384 -0.020436501 0.009475155 -0.0421245
-0.0674451 -0.03193732 0.054314047 -0.011071388 0.02127557 -0.012803181 0.0470813 0.038629673
0.025592417 -0.025734862 -0.04491163 -0.011173035 -0.043278113 0.031610765 -0.062368874 0.022426551
0.05002342 0.024332624 0.019181252 -0.059702307 0.028963195 -0.045108333 -0.07668498 0.039483212
-0.05322991 -0.027061138 0.03727902 -0.06341564 -0.062018923 0.00042209454 -0.022846881 0.0076808617
-0.049140636 -0.013637743 -0.033800233 -0.021263475 -0.058411498 0.024176735 0.0027789562 -0.06290282
0.031931847 0.007968555 -0.003123101 -0.048853066 0.0030436013 0.044188596 0.02671657 -0.049475227
0.03463231 -0.01294993 0.020852827 0.028234191 0.031527728 -0.045722052 0.0384828 -0.05111232
-0.018536184 -0.05494472 -0.015580653 -0.021386119 -0.02081275 -0.010176886 -0.014003683 0.043519553
0.033424538 0.020518918 0.022435121 0.058369406 -0.014592583 0.0062058447 0.02849222 -0.05433917
-0.03954807 0.028025255 -0.012248085 0.01006882 -0.0039171255 0.01669935 0.04636031 -0.012730808
0.05212451 0.05426542 -0.036601517 -0.05491738 -0.058365207 -0.03266383 -0.02728195 -0.017584346
-0.014129887 -0.0292618 -0.030299963 -0.017162764 0.05918436 -0.019231196 -0.037644602 0.02484158
-0.0030804526 0.04640879 0.034479346 0.05284295 -0.041683096 0.020492556 0.032868307 -0.05392233
0.037694935 0.029779388 -0.020643739 0.017976524 -0.025908941 -0.06157099 0.0018115228 0.0007660821
-0.059928946 0.013321114 -0.059264746 0.025530329 0.044880785 0.00802102 -0.052833065 0.015207097
-0.003806338 -0.0039372477 0.011452535 0.037890065 -0.043551512 -0.021144815 0.0098876925 -0.0069213826
0.03342492 -0.04383485 -0.026907224 -0.0009791004 -0.030288294 0.011354074 -0.004789191 -0.066868
-0.034861322 -0.026216894 0.0018114317 -0.007916682 -0.0635506 -0.016214814 -0.014143672 -0.026119541
0.039779283 -0.024865083 0.047436643 0.024693523 -0.03894719 0.022854993 0.05817035 -0.0308172
-0.029095352 0.06600921 0.054094885 -0.020994063 0.046194084 -0.00040331436 -0.05045703 0.013630201
0.025079109 -0.010265988 0.027691843 -0.04668913 0.052097082 0.061301604 0.041416332 0.022008434
0.03132105 -0.032550428 -0.004227251 0.005599835 -0.021379353 -0.03876792 0.04276863 0.04144375
-0.05208409 0.019339368 0.02824251 0.056625295 0.031836867 0.053763945 -0.015103779 0.04010134
0.047905535 -0.059789047 -0.04750913 0.005323344 0.020769067 -0.03512458 0.0019518466 -0.015633153
0.00069322035 -0.05611867 0.0168282 0.025452822 -0.061068136 -0.014020712 -0.012367958 -0.004429888
0.059746604 0.022459831 -0.008169043 0.05709137 -0.018314617 -0.013073101 0.005560648 -0.041751117
0.009543011 -0.038243506 0.008436498 0.0074917837 0.008422386 -0.048634898 -0.053479325 0.026165456
0.05091609 -0.05051354 0.036784783 -0.02742827 0.01877536 0.06859515 0.058735963 -0.026043138
0.04945376 0.04504623 0.015269234 0.04087369 -0.034558862 -0.03302367 -0.040933073 -0.00010283613
4.7857677e-05 -0.0030987184 -0.036356706 -0.03687389 0.01755586 -0.05727373 -0.0073698326 -0.014098323
00000000: af35 46bc be4a 42bd b9e9 c03c 0eb6 273c
00000010: 9056 b23c fb60 73bd bb6f bd3c cd3a 59bd
00000020: 2411 093d d3dd 4cbd 9a18 043c 6efa a2bb
00000030: 7fe3 f0bb 736a a7bc ae3d 1b3c bd8a 2cbd
00000040: a820 8abd b5d0 02bd 6878 5e3d c464 35bc
00000050: 1b4a ae3c 6fc4 51bc 52d8 403d 263a 1e3d
00000060: 30a7 d13c ebd1 d2bc 42f5 37bd 1b0f 37bc
00000070: 6444 31bd 4a7a 013d 8176 7fbd e3b7 b73c
00000080: 5ce5 4c3d 3655 c73c 0022 9d3c 688a 74bd
00000090: 3944 ed3c 84c3 38bd 040d 9dbd 26b9 213d
000000a0: 9b07 5abd 52af ddbc e3b1 183d 0fe0 81bd
000000b0: 8e07 7ebd 924c dd39 6229 bbbc bdaf fb3b
000000c0: b147 49bd d770 5fbc 1d72 0abd bd30 aebc
000000d0: e540 6fbd 4a0e c63c 261f 363b 32d3 80bd
000000e0: f8ca 023d 8b8e 023c f1ac 4cbb 271a 48bd
000000f0: 2877 473b 1aff 343d b5dc da3c 89a6 4abd
00000100: 9cda 0d3d f12b 54bc 8cd3 aa3c 644b e73c
00000110: 3823 013d 0c47 3bbd 24a0 1d3d 275b 51bd
00000120: 32d9 97bc b70d 61bd ff45 7fbc f131 afbc
00000130: 807f aabc f4bc 26bc b46f 65bc 8f41 323d
00000140: 2be8 083d 4a17 a83c dcc9 b73c c214 6f3d
00000150: bb15 6fbc 665a cb3b 8468 e93c c092 5ebd
00000160: 28fd 21bd 3895 e53c 31ac 48bc b1f7 243c
00000170: 3b5b 80bb 13cd 883c 4fe4 3d3d e194 50bc
00000180: 8380 553d 6b45 5e3d 79eb 15bd 0cf1 60bd
00000190: 5b10 6fbd 82ca 05bd 657e dfbc 0c0d 90bc
000001a0: 0b81 67bc 71b6 efbc a137 f8bc ed98 8cbc
000001b0: 4d6b 723d be8a 9dbc 3a31 1abd 9280 cb3c
000001c0: 6be1 49bb 2517 3e3d 373a 0d3d d971 583d
000001d0: e5bb 2abd 01e0 a73c eba0 063d a9dd 5cbd
000001e0: 0166 1a3d e7f3 f33c 0f1d a9bc 8143 933c
000001f0: fd3e d4bc dd31 7cbd 9e70 ed3a e6d2 483a
00000200: 0e78 75bd cd40 5a3c 97bf 72bd fb24 d13c
00000210: ead4 373d 996a 033c 7c67 58bd 3027 793c
00000220: c173 79bb 0704 81bb 6aa3 3b3c 9d32 1b3d
00000230: 1263 32bd e437 adbc fdff 213c c4cc e2bb
00000240: 92e8 083d 2c8c 33bd 8a6c dcbc 2855 80ba
00000250: 281f f8bc 7006 3a3c a5ee 9cbb 17f2 88bd
00000260: bfca 0ebd d0c4 d6bc 906d ed3a f9b4 01bc
00000270: d126 82bd eed4 84bc dcba 67bc a6f8 d5bc
00000280: 9aef 223d dcb1 cbbc ed4c 423d 124a ca3c
00000290: 1787 1fbd 653a bb3c 0844 6e3d 5a74 fcbc
000002a0: 6059 eebc d62f 873d 9992 5d3d befb abbc
000002b0: 0236 3d3d f073 d3b9 08ac 4ebd 3551 5f3c
000002c0: b472 cd3c ad32 28bc 01da e23c 1a3d 3fbd
000002d0: c063 553d 6417 7b3d 2ca4 293d 084b b43c
000002e0: 804a 003d 9953 05bd c084 8abb d27e b73b
000002f0: c123 afbc 1ccb 1ebd 292e 2f3d ecc0 293d
00000300: 2056 55bd 986d 9e3c d65c e73c edef 673d
00000310: 6067 023d 9537 5c3d d775 77bc 4d41 243d
00000320: 9838 443d 5ce5 74bd ef98 42bd 726f ae3b
00000330: e423 aa3c cbde 0fbd 1bd5 ff3a 1911 80bc
00000340: 3bb9 353a b1dc 65bd 4bdb 893c 7082 d03c
00000350: 9522 7abd 21b7 65bc faa2 4abc 9828 91bb
00000360: dbb8 743d aefd b73c 73d7 05bc a4d8 693d
00000370: 8908 96bc 8f30 56bc 1936 b63b 3803 2bbd
00000380: 4a5a 1c3c 39a5 1cbd 3d39 0a3c a37d f53b
00000390: 0cfe 093c 6335 47bd 230d 5bbd f058 d63c
000003a0: 648d 503d 49e7 4ebd a4ab 163d 40b1 e0bc
000003b0: c9ce 993c 9d7b 8c3d 1f95 703d 6b58 d5bc
000003c0: 0790 4a3d 6582 383d cf2b 7a3c 2c6b 273d
000003d0: 988d 0dbd d443 07bd 70a9 27bd baa9 d7b8
000003e0: caba 4838 de13 4bbb c5ea 14bd 1309 17bd
000003f0: 4fd1 8f3c dc97 6abd a37e f1bb a7fc 66bc

conv2.0.bias f4 [32]
-8.29782e-06 -1.3709134e-05 9.329048e-05 2.8342387e-05 6.496692e-05 1.437174e-05 -1.3129718e-05 -1.4117448e-05
-9.716683e-06 2.5045758e-05 -9.76186e-06 -2.3765133e-05 6.671512e-06 5.9902018e-06 -1.6681272e-05 1.8198747e-06
-1.8914907e-05 -5.0201413e-07 -1.9440406e-05 6.3295447e-06 -8.872556e-06 1.4112677e-05 -9.133639e-06 -8.23908e-06
1.8255272e-05 -2.588078e-06 -1.5709393e-06 1.3149827e-05 1.3511435e-05 -7.4180207e-06 2.0117262e-05 3.7962436e-06
00000000: de36 0bb7 4800 66b7 f2a4 c338 d0c0 ed37
00000010: d93e 8838 271e 7137 b647 5cb7 fad9 6cb7
00000020: d604 23b7 5b19 d237 dfc6 23b7 3c5b c7b7
00000030: dadb df36 71ff c836 c2ee 8bb7 6b42 f435
00000040: 74ab 9eb7 26c2 06b5 f413 a3b7 6062 d436
00000050: 56db 14b7 7cc5 6c37 ae3c 19b7 943a 0ab7
00000060: e622 9937 d7ae 2db6 10d9 d2b5 149e 5c37
00000070: 2caf 6237 50e8 f8b6 7ec1 a837 f8c2 7e36

conv2.1.weight f4 [32]
0.97275716 0.9942389 0.9630555 0.9859595 0.9845782 0.9716944 0.97810924 0.986806
0.9940901 0.99247 0.9943966 1.025027 0.9765226 0.993014 1.0032567 0.98139125
0.9746712 0.97668403 0.9860504 0.9918032 0.9858796 0.9934549 0.9831919 0.9953646
1.0031568 1.0000869 0.97454435 0.9919009 1.0158604 0.99425715 0.9910574 1.0108212
00000000: 9d06 793f 7186 7e3f ce8a 763f d767 7c3f
00000010: 510d 7c3f f7c0 783f 5e65 7a3f 519f 7c3f
00000020: b07c 7e3f 8412 7e3f c790 7e3f 1634 833f
00000030: 63fd 793f 2a36 7e3f b76a 803f 753c 7b3f
00000040: 0d84 793f f707 7a3f cd6d 7c3f d1e6 7d3f
00000050: 9b62 7c3f 0f53 7e3f 77b2 7b3f 37d0 7e3f
00000060: 7167 803f d902 803f bd7b 793f 38ed 7d3f
00000070: b707 823f a387 7e3f f0b5 7d3f 9762 813f

conv2.1.bias f4 [32]
0.0016281202 0.021904692 0.000981239 -0.007841084 -5.8075157e-06 0.0012860677 0.0014154706 -0.009917543
0.007875118 0.025788113 0.020980442 0.030310767 0.0041644685 -0.0019780865 -0.00336864 0.0015174722
-0.00046469524 -0.0070888326 0.0023604636 0.023868045 -0.011206259 -0.0011085545 0.000927079 -0.011892114
0.029626941 0.0037814255 -0.012258962 -0.011617136 0.04177296 0.015634341 1.1760014e-05 0.016765641
00000000: a666 d53a 7871 b33c eb9c 803a e477 00bc
00000010: 2ede c2b6 4591 a83a 5087 b93a 317d 22bc
00000020: a406 013c 9841 d33c 2ddf ab3c 494e f83c
00000030: 1876 883b c9a2 01bb 67c4 5cbb ebe5 c63a
00000040: 57a2 f3b9 7049 e8bb 02b2 1a3b eb86 c33c
00000050: 759a 37bc eb4c 91ba 3807 733a 24d7 42bc
00000060: 33b4 f23c cbd1 773b d0d9 48bc cd55 3ebc
00000070: 201a 2b3d 9713 803c e04c 4537 1958 893c

conv2.1.running_mean f4 [32]
-0.26023164 -0.9487509 -0.4471045 0.45359075 -1.0910188 -0.8104152 -0.6820595 0.17865106
-0.66587114 -0.8775763 -0.9641117 -1.0559492 -0.34707573 0.6733977 1.1471363 -0.6099057
-0.5168787 -0.98971456 -0.037526224 -0.95425683 -0.048495423 -1.343266 -0.8277579 -1.474534
-0.80019635 -0.031183071 0.16780184 -1.3819484 -1.349373 -0.05884621 -0.7773918 -1.0756857
00000000: 153d 85be 57e1 72bf e2ea e4be 0c3d e83e
00000010: 81a6 8bbf 5f77 4fbf 749b 2ebf 4ef0 363e
00000020: 8876 2abf d7a8 60bf 06d0 76bf 5829 87bf
00000030: e9b3 b1be cb63 2c3f 5dd5 923f c822 1cbf
00000040: 2a52 04bf ef5d 7dbf 19b5 19bd 2d4a 74bf
00000050: 23a3 46bd 24f0 abbf f1e7 53bf 88bd bcbf
00000060: abd9 4cbf a473 ffbc 3fd4 2b3e afe3 b0bf
00000070: 41b8 acbf b908 71bd 2603 47bf 12b0 89bf

conv2.1.running_var f4 [32]
0.7424038 1.3431362 0.78114104 0.26362586 1.0872521 1.0176679 0.7031334 0.27170298
0.606048 1.3341502 1.1219932 1.2474223 0.43446547 0.8106534 0.64496416 0.69889057
0.6773772 0.71774346 0.9299245 1.3325051 0.3475676 1.334294 1.664868 1.6267707
1.5059321 0.2344533 1.2369925 1.6031903 2.0062947 0.36139026 0.7893505 1.09268
00000000: 2d0e 3e3f e3eb ab3f dcf8 473f f8f9 863e
00000010: 142b 8b3f f142 823f 8d00 343f a71c 8b3e
00000020: f625 1b3f 6fc5 aa3f 799d 8f3f 89ab 9f3f
00000030: 4272 de3e fb86 4f3f 5f1c 253f 7eea 323f
00000040: 9868 2d3f 09be 373f 880f 6e3f 878f aa3f
00000050: 61f4 b13e 25ca aa3f 651a d53f 063a d03f
00000060: 62c2 c03f 8714 703e c555 9e3f 5735 cd3f
00000070: 2267 0040 2508 b93e e012 4a3f f0dc 8b3f

conv3.0.weight f4 [64, 32, 3, 3]
0.06097861 -0.0075814705 0.0012827815 0.040422693 -0.02545475 -0.030073714 0.040821277 -0.04977002
-0.019402266 -0.002665689 -0.002724244 -0.04690628 -0.026929729 0.027459726 -0.05005871 0.018136524
-0.020300835 -0.0380926 -0.06368737 -0.0265638 0.039930955 -0.040035073 -0.059522104 -0.014411102
0.03244062 -0.02884823 0.04622576 0.058577444 0.06395005 -0.022791324 -0.04126808 -0.048921626
-0.008870602 -0.039464142 0.026221875 0.0009251072 0.05709801 -0.040959574 -0.033584833 0.0013204374
0.029296856 0.06548223 0.0076513304 0.06413546 0.0010316628 -0.00815926 -0.021794492 -0.018070253
-0.022966329 -0.050813325 -0.0014695087 -0.02162217 -0.04208054 -0.04230113 -0.04546484 0.0067101535
-0.022765454 0.06441456 0.0052484325 0.038094305 -0.029014884 0.020693403 -0.042849813 0.01880307
0.021961126 -0.06402313 0.024275871 0.0014541665 -0.050007764 -0.023866408 0.05444279 -0.041648325
0.072087415 0.027014697 0.05007027 -0.0083032865 0.03536695 0.0390062 0.06775565 -0.03854852
0.005643144 -0.017174076 -0.057898454 -0.0062170504 0.020733427 0.019470984 -0.04776498 0.007224785
-0.056022197 0.017816022 -0.065887034 -0.071631804 -0.002362537 -0.023142176 -0.005137247 0.03149124
0.036517944 0.011893454 -0.076717824 -0.018892493 -0.0022233147 -0.06860503 0.041154608 0.030313693
-0.037900284 -0.023136182 -0.043981876 0.009418084 -0.0026473147 -0.033407614 0.01593187 -0.017465865
-0.006005475 0.02348844 -0.031894825 -0.063845 0.014728551 -0.042296194 0.019353816 -0.018272936
0.032777373 -0.0078085572 -0.032957535 -0.049099054 0.031105522 -0.04600472 0.0073179533 0.035036314
-0.05376116 -0.05464197 -0.0012435183 -0.030454798 -0.049023055 0.028613903 -0.06622712 -0.01706446
-0.034789994 0.035115186 0.017918162 0.039610907 0.040797018 0.009089492 -0.008610565 0.062033746
0.013460424 0.027824488 -0.033801664 -0.04741526 -0.018433696 -0.019415982 0.028267847 -0.014454859
0.016342228 0.07179782 0.0017097729 0.03533552 0.020106416 0.058343917 0.045117423 0.015871808
0.050519094 0.015258695 -0.0030733359 -0.015213368 -0.03446245 0.056762066 -0.031356156 -0.047020007
-0.017678434 0.0136785 -0.0027299735 0.015977927 0.024408316 0.025525246 -0.058691088 0.0127008
0.018257868 -0.04270716 -0.011875503 -0.0039073625 0.012608225 0.029871471 0.051360648 0.06695548
0.015446031 0.035749722 0.036954768 -0.027719256 0.040045135 0.010066823 0.038716044 -0.016708063
0.06058675 0.029464632 0.036646474 -0.032889847 0.014956997 0.0038716258 0.06685122 -0.040739663
0.0038695917 -0.01893969 -0.031981606 0.037672296 -0.026263956 0.037778087 0.020891657 -0.010996602
0.008449083 0.023448583 -0.006800173 -0.022325052 -0.011940513 0.033812746 -0.03330856 0.06068987
0.029053189 0.044796314 0.039500184 -0.0431652 -0.03647546 0.030172413 -0.018697167 -0.054566324
-0.04025088 0.050902497 -0.029492144 0.028035806 -0.03796009 0.040979683 0.018556494 0.050389186
0.0022048396 0.02654771 0.06856394 0.011544177 -0.024905551 -0.021489352 0.051822484 -0.017720463
-0.029683493 -0.030847816 -0.004318 0.026985012 -0.040466398 -0.0124102095 0.075006336 0.008008177
-0.0004603479 0.046090256 -0.028395563 -0.025084076 -0.0031183385 0.011326594 -0.06824783 0.039829705
00000000: b5c4 793d fc6d f8bb 0123 a83a 4492 253d
00000010: 7b86 d0bc 265d f6bc 3634 273d a6db 4bbd
00000020: 80f1 9ebc d7b2 2ebb 3b89 32bb cd20 40bd
00000030: bc9b dcbc 38f3 e03c 5d0a 4dbd 0c93 943c
00000040: f04d a6bc fc06 1cbd 866e 82bd 549c d9bc
00000050: a48e 233d d1fb 23bd 73cd 73bd 8b1c 6cbc
00000060: 75e0 043d 2053 ecbc 3957 3d3d e7ee 6f3d
00000070: 3ef8 823d dfb4 babc b808 29bd 0b62 48bd
00000080: 0056 11bc 27a5 21bd 42cf d63c e582 723a
00000090: 9adf 693d 3ac5 27bd 4090 09bd 8712 ad3a
000000a0: f6ff ef3c 8c1b 863d 03b8 fa3b 7459 833d
000000b0: dc38 873a 6bae 05bc 5d8a b2bc 1108 94bc
000000c0: e223 bcbc a221 50bd 889c c0ba fa20 b1bc
000000d0: a55c 2cbd f343 2dbd 5739 3abd d9e0 db3b
000000e0: 9e7e babc c8eb 833d 0bfb ab3b c608 1c3d
000000f0: 9fb0 edbc 3685 a93c 4983 2fbd e508 9a3c
00000100: d2e7 b33c 8f1e 83bd 31de c63c bb99 be3a
00000110: f1d4 4cbd 7c83 c3bc 67ff 5e3d 6f97 2abd
00000120: 91a2 933d ed4d dd3c 7c16 4d3d 820a 08bc
00000130: efdc 103d f7c4 1f3d 79c3 8a3d 0ee5 1dbd
00000140: 1fea b83b a6b0 8cbc ee26 6dbd 66b8 cbbb
00000150: 26d9 a93c 9d81 9f3c 36a5 43bd e4bd ec3b
00000160: 8877 65bd e8f2 913c c8ef 86bd b2b3 92bd
00000170: cbd4 1abb a994 bdbc 5a56 a8bb f5fc 003d
00000180: d793 153d c3dc 423c 3c1e 9dbd 6ec4 9abc
00000190: 08b5 11bb cb80 8cbd bc91 283d 6c54 f83c
000001a0: 543d 1bbd 1788 bdbc 5726 34bd 4f4e 1a3c
000001b0: 927e 2dbb 6cd6 08bd 8e83 823c 9314 8fbc
000001c0: 93c9 c4bb d46a c03c 26a4 02bd 2bc1 82bd
000001d0: 0550 713c c63e 2dbd e58b 9e3c 20b1 95bc
000001e0: 9141 063d edde ffbb 7bfe 06bd 171c 49bd
000001f0: 02d1 fe3c 726f 3cbd 71cb ef3b 3d82 0f3d
00000200: a934 5cbd 42d0 5fbd 8dfd a2ba 577c f9bc
00000210: 66cc 48bd b467 ea3c 16a2 87bd c4ca 8bbc
00000220: f47f 0ebd f1d4 0f3d 1cc9 923c 0c3f 223d
00000230: c61a 273d 18ec 143c 5413 0dbc 1917 7e3d
00000240: 1c89 5c3c 2ef0 e33c 9d73 0abd 8136 42bd
00000250: 4302 97bc 440e 9fbc f991 e73c 13d4 6cbc
00000260: 23e0 853c bc0a 933d 751a e03a fabb 103d
00000270: 36b6 a43c 08fa 6e3d 0ccd 383d 9805 823c
00000280: 1ced 4e3d 9bff 793c 056a 49bb 7e41 79bc
00000290: 7f28 0dbd 577f 683d 506f 00bd 0d98 40bd
000002a0: 5dd2 90bc ca1b 603c 5be9 32bb 24e4 823c
000002b0: f3f3 c73c 521a d13c 1166 70bd 0417 503c
000002c0: 8691 953c b4ed 2ebd 7891 42bc 5509 80bb
000002d0: bb92 4e3c 04b5 f43c 8b5f 523d f41f 893d
000002e0: 5911 7d3c 4d6e 123d e25d 173d 7e13 e3bc
000002f0: 5e06 243d 51ef 243c b794 1e3d 59df 88bc
00000300: d029 783d d05f f13c 9d1a 163d 81b7 06bd
00000310: 310e 753c 1abb 7d3b 4be9 883d a2de 26bd
00000320: fa98 7d3b 6927 9bbc 25ff 02bd 444e 1a3d
00000330: 8227 d7bc 32bd 1a3d fb24 ab3c 172b 34bc
00000340: 066e 0a3c 3e17 c03c fcd3 debb 07e3 b6bc
00000350: 24a2 43bc 3c7f 0a3d 8e6e 08bd f195 783d
00000360: f400 ee3c 577c 373d f2ca 213d fecd 30bd
00000370: 4b67 15bd 232c f73c cd2a 99bc f080 5fbd
00000380: 1bde 24bd 237f 503d 8299 f1bc 59ab e53c
00000390: 0a7c 1bbd 50da 273d ca03 983c e464 4e3d
000003a0: 127f 103b 957a d93c 406b 8c3d ca23 3d3c
000003b0: ba06 ccbc 700a b0bc d043 543d 812a 91bc
000003c0: cc2a f3bc 8fb4 fcbc 027e 8dbb ac0f dd3c
000003d0: 18c0 25bd 3154 4bbc ec9c 993d bb34 033c
000003e0: d95a f1b9 23c9 3c3d d09d e8bc 1f7d cdbc
000003f0: 0a5d 4cbb 2e93 393c 85c5 8bbd 7924 233d

conv3.0.bias f4 [64]
-6.4780993e-06 2.3262076e-06 -6.2888953e-06 -5.7634734e-06 -5.3913354e-06 -1.0115206e-05 -2.5107116e-05 1.5899763e-05
-4.036313e-06 -3.1321479e-06 -3.877531e-05 5.2971386e-06 1.0920946e-06 -1.3247789e-06 -1.1571867e-06 2.8210257e-05
3.302108e-07 3.9300062e-08 3.8363396e-07 1.914922e-06 5.676632e-06 1.2027606e-09 1.0295065e-07 2.7864467e-05
-1.0471352e-05 4.7166714e-07 1.0653011e-05 -2.1385379e-06 3.186954e-06 -5.760865e-06 1.5791454e-06 6.535858e-07
-7.928451e-06 1.1278713e-05 4.082724e-06 6.0358584e-06 2.387357e-05 -9.284656e-06 2.9204826e-05 1.362255e-06
-3.5772562e-05 -2.0800497e-05 1.9241907e-07 -1.2826296e-05 0.00013559485 -1.5611951e-07 -3.6367634e-05 2.91785e-06
3.330886e-05 9.546502e-07 -3.6455543e-07 -4.858013e-05 4.452605e-06 2.1374999e-05 -7.160491e-06 7.090734e-06
1.1209244e-05 3.9424085e-05 -9.874035e-06 -5.4612756e-06 -2.0556512e-05 3.9515676e-06 -4.022082e-06 -8.798019e-06
00000000: 735e d9b6 f11b 1c36 3305 d3b6 dc63 c1b6
00000010: 38e7 b4b6 7bb4 29b7 1f9d d2b7 7b60 8537
00000020: aa6f 87b6 e431 52b6 aca2 22b8 13be b136
00000030: 1694 9235 0ecf b1b5 a250 9bb5 11a5 ec37
00000040: d447 b134 e0ca 2833 40f6 cd34 1c82 0036
00000050: e679 be36 604e a530 b815 dd33 7dbe e937
00000060: 1dae 2fb7 7039 fd34 55ba 3237 cd83 0fb6
00000070: 74df 5536 744d c1b6 06f3 d335 1372 2f35
00000080: 7004 05b7 b439 3d37 55fe 8836 a187 ca36
00000090: 1a44 c837 4bc5 1bb7 e3fc f437 bad6 b635
000000a0: 7f0a 16b8 ba7c aeb7 c09b 4e34 8630 57b7
000000b0: 772e 0e39 cea1 27b4 7389 18b8 48d0 4336
000000c0: 1eb5 0b38 8821 8035 1eb8 c3b4 84c2 4bb8
000000d0: 9667 9536 764e b337 2644 f0b6 f1ec ed36
000000e0: 560f 3c37 4a5b 2538 a8a8 25b7 0040 b7b6
000000f0: c670 acb7 b597 8436 6cf5 86b6 349b 13b7

conv3.1.weight f4 [64]
0.98262686 0.9866963 0.97989726 0.9878686 0.99544144 0.9661331 0.9991524 0.9942212
0.9955351 0.99230176 1.0027012 0.99383485 0.98397464 1.0053262 0.99236506 0.9815521
0.982682 1.0082994 0.9938724 1.0155611 0.99208957 0.9928193 0.9793289 0.9746452
0.98096657 0.9987778 0.9739123 0.9924709 0.99738824 0.9876874 0.98336315 1.002473
0.9749506 0.9805395 1.0174707 0.98501295 0.9816676 0.98310393 1.0129975 0.9896059
0.99484843 0.9763778 1.0254297 0.9836518 0.97198826 1.0053805 0.9770673 0.9799056
0.9794823 0.9957768 1.0088603 1.0028744 0.95779955 0.9860273 1.0026865 0.9759703
0.98954344 1.0099373 0.9988973 0.9765491 0.9972964 0.9842642 0.9872129 0.9868685
00000000: 6f8d 7b3f 2198 7c3f 8cda 7a3f f5e4 7c3f
00000010: 40d5 7e3f 8054 773f 74c8 7f3f 4885 7e3f
00000020: 63db 7e3f 7d07 7e3f 8358 803f f66b 7e3f
00000030: c3e5 7b3f 87ae 803f a30b 7e3f 0047 7b3f
00000040: 0c91 7b3f f40f 813f 6c6e 7e3f e8fd 813f
00000050: 95f9 7d3f 6829 7e3f 4cb5 7a3f 5982 793f
00000060: a020 7b3f e7af 7f3f 5152 793f 9312 7e3f
00000070: d654 7f3f 15d9 7c3f b0bd 7b3f 0951 803f
00000080: 5d96 793f a304 7b3f 7b3c 823f cf29 7c3f
00000090: 914e 7b3f b3ac 7b3f e7a9 813f d056 7d3f
000000a0: 63ae 7e3f e5f3 793f 4841 833f 9bd0 7b3f
000000b0: 39d4 783f 4fb0 803f 1521 7a3f 18db 7a3f
000000c0: 5abf 7a3f 3aeb 7e3f 5622 813f 305e 803f
000000d0: 5a32 753f 496c 7c3f 0858 803f 31d9 793f
000000e0: b852 7d3f a045 813f bcb7 7f3f 1fff 793f
000000f0: d14e 7f3f bdf8 7b3f fcb9 7c3f 6aa3 7c3f

conv3.1.bias f4 [64]
-0.0023201744 5.010763e-06 -0.004360653 0.0061039724 0.001117069 -0.008301398 -0.0072249174 -0.0012900094
0.0073187454 0.0012211745 0.0074886843 -0.008077373 -0.0055348715 -0.001143092 0.00058577774 0.0014983052
0.0023683934 0.016462471 -0.0033486849 0.021178653 0.0012335449 -0.0028515842 0.0021895494 -0.011186811
-0.00022456973 0.010543582 -0.0036275433 0.008891181 -0.00848128 0.0024804417 -0.010412 0.018207105
-0.0061244173 0.00090118416 0.026469674 0.001074647 -0.008797262 -0.0045564296 0.0013896504 -0.002825611
0.0022523687 -0.008712311 0.008288469 0.0048819855 -0.0081927795 0.008382017 -0.007472174 -0.00951916
-0.007495562 0.0054459926 0.008938204 -0.009232118 -0.00954271 0.0006258838 0.006358238 -0.00567022
0.006366015 0.006196969 0.0056248936 -0.0047488445 0.0051917005 -0.012223627 -0.020056976 0.005380867
00000000: 110e 18bb 2022 a836 cfe3 8ebb d503 c83b
00000010: 9e6a 923a 9602 08bc 00bf ecbb 8815 a9ba
00000020: 16d2 ef3b d10f a03a a363 f53b f556 04bc
00000030: de5d b5bb ced3 95ba e18e 193a c862 c43a
00000040: 0c37 1b3b 4edc 863c 9c75 5bbb db7e ad3c
00000050: e6ae a13a a5e1 3abb 8b7e 0f3b e348 37bc
00000060: 7a7a 6bb9 fdbe 2c3c 14bc 6dbb 51ac 113c
00000070: 11f5 0abc e88e 223b 1897 2abc 1127 953c
00000080: 56af c8bb 723d 6c3a eed6 d83c 2bdb 8c3a
00000090: 6422 10bc 1a4e 95bb ee24 b63a e32d 39bb
000000a0: 7a9c 133b 15be 0ebc 5ccc 073c 10f9 9f3b
000000b0: 023b 06bc ba54 093c 23d9 f4bb 40f6 1bbc
000000c0: 559d f5bb 4c74 b23b 8b71 123c 4f42 17bc
000000d0: 0759 1cbc 5a12 243a c458 d03b 41cd b9bb
000000e0: 019a d03b f20f cb3b 0751 b83b 329c 9bbb
000000f0: 241f aa3b 9c45 48bc 874e a4bc fc51 b03b

conv3.1.running_mean f4 [64]
0.00892436 -0.98063207 0.0325527 -1.0644927 -0.42534137 0.07703239 -1.3250264 0.14924978
0.8798712 0.5765313 -0.9242016 -0.9247523 0.635095 -0.45380092 -0.46563828 -0.97204363
-1.3437941 -0.11955713 -0.66615415 -0.20323269 0.44199392 0.084154725 -1.5409036 -0.13219763
-0.41498423 -0.6472223 0.22829449 -1.1285849 -1.3663341 -1.2919322 -0.15584241 -0.7407304
-0.46708265 -0.78523695 -0.31941435 -0.043321565 -1.2014111 1.1516447 -0.9292628 0.505022
-0.31466144 -0.43416062 -1.1467584 -0.1402128 0.22595039 -0.8840698 -0.6969954 0.5484313
0.8386038 -0.8169744 -0.95301956 0.64815164 0.20812812 -0.99987054 -1.5223114 -0.010288584
0.47951257 -1.0069695 0.3729867 -0.30696705 -0.4128523 1.3046203 -1.1612972 -1.1077149
00000000: 7b37 123c b40a 7bbf fb55 053d 4c41 88bf
00000010: 58c6 d9be 28c3 9d3d 779a a9bf efd4 183e
00000020: 3d3f 613f 8e97 133f 7a98 6cbf 91bc 6cbf
00000030: 9695 223f 9858 e8be 2468 eebe dad7 78bf
00000040: 7201 acbf 5eda f4bd 1489 2abf 3b1c 50be
00000050: 074d e23e 5059 ac3d 543c c5bf d15e 07be
00000060: d078 d4be 5cb0 25bf 08c6 693e 7875 90bf
00000070: 09e4 aebf 095e a5bf 2795 1fbe 82a0 3dbf
00000080: 7525 efbe 4a05 49bf 478a a3be f471 31bd
00000090: d7c7 99bf 1869 933f 2be4 6dbf 1f49 013f
000000a0: 4e1b a1be 4d4a debe fbc8 92bf f293 0fbe
000000b0: 8a5f 673e 6652 62bf 4a6e 32bf fe65 0c3f
000000c0: bdae 563f 3c25 51bf 17f9 73bf 44ed 253f
000000d0: 8a1f 553e 84f7 7fbf 1adb c2bf 7391 28bc
000000e0: ac82 f53e 60e4 80bf 1df8 be3e c92a 9dbe
000000f0: 6061 d3be ccfd a63f 63a5 94bf 9ac9 8dbf

conv3.1.running_var f4 [64]
0.7171385 0.67864496 0.2361182 1.3250842 1.111986 0.26393884 0.2106689 0.31589696
0.77228343 0.32437322 1.5344988 0.6049105 0.6258633 0.17697807 0.9800239 1.2140554
1.0458071 1.374387 1.2232739 0.8615607 0.21456338 0.57887053 1.5129559 0.76496625
0.69172466 0.6602342 1.0947503 0.6083926 0.3095106 0.30761155 0.1819689 2.1384897
0.47151807 1.2760972 0.8537515 0.2894396 0.7295465 0.88756865 0.47933832 0.86025447
0.4099808 0.92767435 0.2698001 0.9554533 0.2719768 1.1623783 1.0153524 0.24461532
1.0420153 0.6203912 0.32059786 0.41481954 0.6839791 2.3305998 2.3341813 1.5592024
0.47228366 0.4154477 0.9688878 0.32846698 1.8141254 0.31019476 0.36473417 2.5008445
00000000: 6496 373f adbb 2d3f f8c8 713e 5c9c a93f
00000010: 8f55 8e3f fe22 873e 97b9 573e 3fbd a13e
00000020: 5eb4 453f 3f14 a63e 756a c43f 6adb 1a3f
00000030: 9438 203f bd39 353e d9e2 7a3f 2b66 9b3f
00000040: 02dd 853f eaeb af3f 3d94 9c3f 3e8f 5c3f
00000050: 81b6 5b3e dc30 143f 8aa8 c13f d4d4 433f
00000060: de14 313f 1c05 293f c720 8c3f 9ebf 1b3f
00000070: 2c78 9e3e 437f 9d3e 0e56 3a3e 04dd 0840
00000080: d16a f13e 2757 a33f 758f 5a3f 6d31 943e
00000090: 8fc3 3a3f b337 633f d56b f53e a339 5c3f
000000a0: 01e9 d13e 117c 6d3f 3d23 8a3e 9698 743f
000000b0: 8b40 8b3e d0c8 943f 11f7 813f 707c 7a3e
000000c0: c260 853f f5d1 1e3f 6725 a43e 3a63 d43e
000000d0: 4119 2f3f 8c28 1540 3a63 1540 f293 c73f
000000e0: 2acf f13e 90b5 d43e 0809 783f d32c a83e
000000f0: 4335 e83f d9d1 9e3e 70be ba3e d60d 2040

conv4.0.weight f4 [64, 64, 3, 3]
0.029820992 0.024820136 -0.00686076 0.04607419 0.030204073 -0.022493482 -0.008017631 0.016385816
-0.016138276 -0.0067376494 0.031097678 0.03635991 -0.017237553 0.038546756 -0.019020239 -0.012594532
0.014050165 0.039102692 -0.023638701 0.003300013 0.033208244 0.031882722 0.008196999 0.01264455
0.0013019491 -0.013196921 0.033219986 0.031654105 0.03707295 -0.0049368422 0.041320365 0.0017775754
0.022977328 -0.023457604 0.024886172 -0.023095375 -0.027177418 0.016236512 -0.02439016 -0.038617395
0.013808168 -0.0012987214 0.02963935 0.008721208 0.009428342 -0.043747194 -0.053267382 0.0029735866
-0.022750309 -0.034903172 -0.045168303 -0.021806207 -0.030408738 0.022044968 -0.018064283 -0.024119189
0.010885243 -0.0056141694 -0.033540834 0.035929304 0.03885091 -0.033621836 0.040346403 -0.013166322
-0.0027155257 -0.03202005 0.017202666 0.0067661353 -0.025611091 -0.01992234 -0.031257164 -0.03870857
-0.06861458 0.00078443316 -0.062725045 -0.06071767 -0.033527125 -0.03454332 0.0016775774 -0.0623084
0.010220698 -0.024157422 -0.017308218 0.05189651 0.036055904 -0.004380684 -0.012320987 -0.0063959346
-0.018480187 -0.012386971 0.032290272 -0.037907872 -0.048863083 0.022497887 -0.02910182 0.02190298
-0.03989845 0.014478252 -0.03908269 -0.031122416 -0.011231749 0.018398289 0.032512147 -0.0053855106
0.024999388 -0.012566653 -0.012415557 0.024651043 0.019876033 0.030094776 -0.046804138 -0.032632288
0.023827735 -0.029624945 -0.03249908 -0.0285825 0.014304457 -0.02292125 -0.01242601 0.014045315
0.024531383 0.029292934 0.017941386 0.04074173 -0.009747048 0.014975686 -0.01960595 -0.00952274
-0.041512296 0.011924879 -0.006868298 0.005880264 -0.018044686 -0.035840742 -0.005990785 0.014922478
0.03000543 0.006183495 -0.027124992 -0.044820394 0.016321046 0.0066594826 0.032358866 -0.04648709
-0.028994637 -0.042651117 -0.0054822084 -0.019468252 0.022292469 -0.03532182 -0.0049851546 -0.048287008
-0.02506926 -0.029632784 0.013188929 0.03562362 -0.00264737 0.0040924833 -0.015127826 0.0033885748
-0.006026633 0.0067152185 0.008688575 0.032003358 0.01683258 0.014813988 -0.03850219 -0.033779092
-0.028814513 -0.012463599 -0.0057598664 0.0271753 -0.037104875 0.0036890157 -0.016257515 -0.005899484
-0.0049432013 0.0010892012 -0.016560012 -0.023757355 -0.0015242192 -0.03534499 0.02608908 0.023439655
-0.031193167 0.0011488489 -0.033860773 -0.027113197 0.03490866 0.04800603 0.04482454 0.016322574
0.008973895 0.023554575 0.0014910572 0.023807293 0.0435711 0.03618299 -0.025687635 -0.040909346
-0.031562977 -0.031752203 -0.025654819 -0.03980254 -0.024068892 -0.0014741758 0.0249693 -0.017523486
-0.040266808 0.035010323 -0.033060685 -0.04770444 0.019599738 -0.024517711 -0.042838532 -0.01741219
-0.0074280184 0.021870114 0.02663045 0.043963242 0.061917603 -0.012104231 0.045484606 0.027227407
0.024738837 -0.016901145 -0.04980419 0.025030576 0.026607277 -0.036028583 -0.02112748 0.016198285
0.0013982707 0.0025332225 0.029540703 -0.0049716225 -0.017050978 -0.028354468 0.023738483 0.023675801
0.00096394843 -0.016908402 -0.008762994 -0.014358612 -0.005762291 0.058600936 -0.026171435 0.045623723
0.03156298 0.02635647 0.04550047 0.018556561 -0.003239294 -0.013810578 0.033814758 0.00092975755
00000000: 274b f43c 9953 cb3c 3ad0 e0bb 4ab8 3c3d
00000010: 886e f73c 4044 b8bc 625c 03bc 8c3b 863c
00000020: 6b34 84bc 80c7 dcbb 8fc0 fe3c 21ee 143d
00000030: c535 8dbc 34e3 1d3d 55d0 9bbc 4c59 4ebc
00000040: aa32 663c 252a 203d f3a5 c1bc 0845 583b
00000050: 5e05 083d 7597 023d b54c 063c 162b 4f3c
00000060: 2aa6 aa3a e637 58bc ae11 083d bca7 013d
00000070: ced9 173d 3cc5 a1bb 8b3f 293d 88fd e83a
00000080: f33a bc3c 292a c0bc 16de cb3c 8332 bdbc
00000090: 2da3 debc 6f02 853c dfcd c7bc 462d 1ebd
000000a0: a73b 623c dc39 aaba 39ce f23c 66e3 0e3c
000000b0: 5579 1a3c 4230 33bd e62e 5abd 81e0 423b
000000c0: db5e babc a1f6 0ebd 6602 39bd eea2 b2bc
000000d0: bf1b f9bc a697 b43c 8cfb 93bc 9b95 c5bc
000000e0: 0558 323c 11f7 b7bb 1d62 09bd 9b2a 133d
000000f0: 2222 1f3d 0db7 09bd 4542 253d 8fb7 57bc
00000100: f6f6 31bb 7527 03bd 9bec 8c3c 75b6 dd3b
00000110: 5ace d1bc 2d34 a3bc 8307 00bd e18c 1ebd
00000120: cd85 8cbd 6ba2 4d3a fd75 80bd 17b3 78bd
00000130: bd53 09bd 4c7d 0dbd 28e2 db3a 1837 7fbd
00000140: b774 273c c9e5 c5bc f7c9 8dbc 6f91 543d
00000150: 5baf 133d d78b 8fbb f7dd 49bc fd94 d1bb
00000160: c363 97bc b9f2 4abc ce42 043d 4945 1bbd
00000170: a824 48bd 7d4d b83c f166 eebc e16d b33c
00000180: 8f6c 23bd 3136 6d3c 2c15 20bd 70f4 febc
00000190: 5f05 38bc 02b8 963c 752b 053d f078 b0bb
000001a0: 84cb cc3c 5de4 4dbc 9f6a 4bbc fcf0 c93c
000001b0: 10d3 a23c 5289 f63c b2b5 3fbd 6fa9 05bd
000001c0: 6232 c33c 03b0 f2bc c11d 05bd d925 eabc
000001d0: 3e5d 6a3c 58c5 bbbc 7796 4bbc 521e 663c
000001e0: 0af6 c83c bcf7 ef3c d0f9 923c cde0 263d
000001f0: 15b2 1fbc 945c 753c a89c a0bc 4405 1cbc
00000200: cc08 2abd 9160 433c 760f e1bb 3baf c03b
00000210: 73d2 93bc becd 12bd 594e c4bb 697d 743c
00000220: f3cd f53c ea9e ca3b 3b35 debc 9795 37bd
00000230: b7b3 853c ca37 da3b bb8a 043d 3f69 3ebd
00000240: 2986 edbc f0b2 2ebd 19a4 b3bb e27b 9fbc
00000250: b29e b63c 9dad 10bd 825a a3bb 99c8 45bd
00000260: 0c5e cdbc 74c0 f2bc 6116 583c 13ea 113d
00000270: 807f 2dbb 3d1a 863b b3da 77bc da12 5e3b
00000280: 107b c5bb 560b dc3b 865a 0e3c f415 033d
00000290: 7be4 893c 5eb6 723c 79b4 1dbd f25b 0abd
000002a0: 6a0c ecbc 2034 4cbc 43bd bcbb bc9e de3c
000002b0: 48fb 17bd 6ac3 713b 7b2e 85bc 7550 c1bb
000002c0: 94fa a1bb 87c3 8e3a dda8 87bc c99e c2bc
000002d0: 4fc8 c7ba e9c5 10bd c4b8 d53c 8504 c03c
000002e0: d088 ffbc f994 963a 98b1 0abd 7f1c debc
000002f0: 62fc 0e3d f9a1 443d f099 373d ebb6 853c
00000300: 3e07 133c 86f5 c03c 946f c33a 8307 c33c
00000310: 9c77 323d 9d34 143d e06e d2bc 8f90 27bd
00000320: 2e48 01bd 990e 02bd 0e2a d2bc fd07 23bd
00000330: 202c c5bc 2239 c1ba 6b8c cc3c 6a8d 8fbc
00000340: cfee 24bd fc66 0f3d a46a 07bd bb65 43bd
00000350: a18f a03c 5ed9 c8bc 7577 2fbd 02a4 8ebc
00000360: bc66 f3bb f428 b33c 1a28 da3c cd12 343d
00000370: 509d 7d3d d350 46bc 114e 3a3d 030c df3c
00000380: 1aa9 ca3c 4574 8abc 7aff 4bbd ec0c cd3c
00000390: 81f7 d93c b592 13bd 8913 adbc 44b2 843c
000003a0: 2e46 b73a 6c04 263b 58ff f13c fee8 a2bb
000003b0: 7eae 8bbc a147 e8bc 3577 c23c c1f3 c13c
000003c0: 7cb1 7c3a 7d83 8abc a992 0fbc 6240 6bbc
000003d0: 9ad1 bcbb 8907 703d 7a65 d6bc f1df 3a3d
000003e0: 2f48 013d 86e9 d73c b35e 3a3d ee03 983c
000003f0: 564a 54bb c345 62bc 5881 0a3d f9ba 733a

conv4.0.bias f4 [64]
3.404131e-05 4.106746e-06 -2.3017647e-06 2.2730906e-06 3.3653732e-06 -3.8969334e-05 -2.8470533e-05 1.5468151e-05
-3.1094878e-06 -5.900454e-06 4.368746e-05 -1.3225778e-07 -3.858826e-05 7.8339326e-07 -8.797546e-06 -7.11162e-07
-6.8819645e-06 -7.4518335e-05 1.09590865e-05 6.4603605e-06 1.5542696e-06 9.053183e-07 -4.934811e-06 6.9818743e-06
-1.40018e-05 -4.4681246e-06 -1.5565923e-06 -9.2170666e-07 -2.5990412e-05 2.65173e-05 -2.193708e-06 -2.8654708e-06
5.9056518e-08 -5.246833e-06 -4.2818343e-08 6.073964e-08 -2.4350313e-06 -9.620294e-06 9.651536e-06 -2.6600358e-07
3.1818436e-06 -4.8672715e-05 -2.019716e-05 4.420151e-06 4.000013e-06 -1.2135918e-05 2.5575804e-05 2.3785728e-05
-5.2468374e-07 1.0175805e-05 -2.449568e-06 -5.8701644e-06 4.382494e-06 7.735225e-06 -2.700118e-05 2.6002248e-05
-7.93348e-07 -1.5137671e-06 -7.319123e-06 -1.2296399e-06 5.948528e-08 6.6337125e-06 5.78027e-06 -3.5318597e-05
00000000: 94c7 0e38 aecc 8936 0478 1ab6 668b 1836
00000010: acd8 6136 0173 23b8 01d4 eeb7 9ac1 8137
00000020: 98ac 50b6 84fc c5b6 0e3d 3738 be02 0eb4
00000030: d4d9 21b8 604a 5235 2c99 13b7 aee6 3eb5
00000040: a0eb e6b6 ba46 9cb8 ebdc 3737 13c6 d836
00000050: 4c9c d035 0005 7335 b495 a5b6 d845 ea36
00000060: 46e9 6ab7 e6ec 95b6 1bec d0b5 336b 77b5
00000070: fc05 dab7 7871 de37 9e37 13b6 6a4c 40b6
00000080: 54a5 7d33 f40d b0b6 44e7 37b3 f86f 8233
00000090: 8569 23b6 d966 21b7 08ed 2137 41cf 8eb4
000000a0: a887 5536 ee25 4cb8 126d a9b7 cf50 9436
000000b0: da37 8636 5f9b 4bb7 9f8b d637 7687 c737
000000c0: fed7 0cb5 c0b8 2a37 4263 24b6 54f8 c4b6
000000d0: 560d 9336 8ac6 0137 9880 e2b7 671f da37
000000e0: 76f6 54b5 a42c cbb5 ca96 f5b6 1b0a a5b5
000000f0: c27c 7f33 2897 de36 24f4 c136 0e23 14b8

conv4.1.weight f4 [64]
0.99086 0.9833707 0.9970643 0.9638129 0.9823097 0.9894424 0.98871315 1.0044332
0.96822363 0.99629724 0.9521875 0.9803993 1.0147083 1.016258 0.9800691 0.9683984
0.97514707 0.97715425 1.0007504 0.9700273 0.98161805 0.9756209 0.9885904 0.9807509
0.98401254 1.0136225 0.98381996 1.0013342 0.973733 0.99265295 0.99167037 0.9821636
0.9724294 0.9606509 0.9908862 0.97315806 0.9944176 0.97211355 0.9879902 0.9791371
1.013863 0.9756397 0.9661784 0.9867448 0.99848706 0.983226 0.99051213 1.0128803
0.98387516 1.0045208 0.99165696 1.0097959 0.96779877 0.9921688 0.9632856 1.0116726
0.99334884 0.9704628 1.0004854 0.9893499 0.9774609 0.99548215 0.97881824 0.9819228
00000000: 00a9 7d3f 2fbe 7b3f 9b3f 7f3f 71bc 763f
00000010: a678 7b3f 194c 7d3f 4e1c 7d3f 4491 803f
00000020: 81dd 773f 560d 7f3f 8fc2 733f 73fb 7a3f
00000030: f6e1 813f be14 823f cfe5 7a3f f5e8 773f
00000040: 3da3 793f c826 7a3f 9718 803f b653 783f
00000050: 524b 7b3f 4bc2 793f 4314 7d3f 7e12 7b3f
00000060: 3fe8 7b3f 62be 813f a0db 7b3f b82b 803f
00000070: 9146 793f 811e 7e3f 1cde 7d3f 136f 7b3f
00000080: 22f1 783f 38ed 753f b8aa 7d3f e320 793f
00000090: 2792 7e3f 6fdc 783f edec 7c3f bba8 7a3f
000000a0: 43c6 813f 86c3 793f 7857 773f 4f9b 7c3f
000000b0: d99c 7f3f b3b4 7b3f 3492 7d3f 10a6 813f
000000c0: 3edf 7b3f 2394 803f 3bdd 7d3f fe40 813f
000000d0: a9c1 773f c6fe 7d3f e399 763f 7d7e 813f
000000e0: 1c4c 7e3f 4070 783f e80f 803f 0946 7d3f
000000f0: e13a 7a3f ebd7 7e3f d593 7a3f 4b5f 7b3f

conv4.1.bias f4 [64]
0.0029572216 -0.007672263 0.016366104 -0.011060332 0.015623148 0.01890492 0.015375257 0.023107182
-0.017008655 0.024845002 -0.016689418 -0.0032771279 0.045680482 0.019038102 -0.00030821038 0.008732597
0.006494374 0.007011283 0.033303104 -0.005683346 0.0041654534 0.0034843583 0.025520034 0.0037505522
0.023792565 0.023746442 7.2698094e-06 0.03344021 0.005437056 0.017285423 0.012610685 0.008574316
-0.012075278 -0.0020906413 0.008497207 0.021369638 0.013929787 0.012388237 -0.006555989 0.009722898
0.016479364 -0.0011836202 -0.0010310641 -0.0017331399 0.030211749 -0.0026606019 -0.0028702973 0.04126453
-0.0058522616 0.02263712 0.010728662 0.015716514 0.012670129 0.011112048 -0.00731026 0.025723848
0.024573594 0.007847985 0.018358085 0.0017378854 0.013653676 0.0077183153 0.014385519 -0.008329572
00000000: f2cd 413b 9b67 fbbb 3512 863c 6536 35bc
00000010: 3bf8 7f3c 7ede 9a3c 80e8 7b3c 464b bd3c
00000020: bc55 8bbc bf87 cb3c 3fb8 88bc 15c5 56bb
00000030: 751b 3b3d cbf5 9b3c 4c97 a1b9 2b13 0f3c
00000040: c2ce d43b e8be e53b d668 083d 5d3b babb
00000050: 5b7e 883b d559 643b 640f d13c d3cb 753b
00000060: a0e8 c23c e687 c23c 30ef f336 9af8 083d
00000070: 5529 b23b 299a 8d3c 0c9d 4e3c 4a7b 0c3c
00000080: 63d7 45bc 2403 09bb df37 0b3c 610f af3c
00000090: c339 643c 08f8 4a3c 9fd3 d6bb ca4c 1f3c
000000a0: bbff 863c b423 9bba c524 87ba 862a e3ba
000000b0: a17e f73c 7e5d 2ebb 991b 3cbb ff04 293d
000000c0: 54c4 bfbb 7b71 b93c 45c7 2f3c ebbf 803c
000000d0: 5f96 4f3c 4f0f 363c e88a efbb d2ba d23c
000000e0: 904e c93c d694 003c b263 963c c2c9 e33a
000000f0: abb3 5f3c ece9 fc3b 3db1 6b3c c278 08bc

conv4.1.running_mean f4 [64]
-0.51747745 0.33397552 -0.4092328 0.016089413 -1.3124557 -0.47624266 -0.9073364 -0.68891144
-0.39929706 -1.1313043 0.942639 1.1838017 -1.0709894 -1.0507464 0.42692524 -1.0762838
-1.1665505 -0.74959713 -1.3409834 0.36009148 -0.635371 0.80231106 -1.1945461 -0.8426775
-1.1808136 -0.76093405 -1.286062 -0.94030946 -1.1936387 -0.565851 -1.1103795 -0.70837784
-1.2706507 -0.317545 -1.2025682 -1.3960576 -0.48376387 -0.4488162 -0.37747264 -0.49007687
-0.629038 -0.8294504 -0.12420502 -0.6630736 -0.65955675 -0.8271635 -0.316464 -0.82530814
0.068447836 -0.2678881 0.14711395 -0.71405137 -0.44796035 -0.3946913 -0.064246155 -0.5464272
-0.50228375 -1.492048 -0.700964 0.09018784 -0.72055644 -0.32066724 -0.30762696 0.24102971
00000000: 6779 04bf d7fe aa3e f686 d1be f2cd 833c
00000010: 8cfe a7bf 14d6 f3be 3347 68bf 805c 30bf
00000020: aa70 ccbe 94ce 90bf ca50 713f d086 973f
00000030: 2e16 89bf dc7e 86bf f295 da3e abc3 89bf
00000040: 8751 95bf 99e5 3fbf 58a5 abbf e95d b83e
00000050: ada7 22bf 4264 4d3f e3e6 98bf b6b9 57bf
00000060: e624 97bf 93cc 42bf ae9d a4bf 1fb8 70bf
00000070: 27c9 98bf 9cdb 10bf ea20 8ebf 4058 35bf
00000080: afa4 a2bf 4295 a2be c1ed 99bf 04b2 b2bf
00000090: e6af f7be 3dcb e5be 1844 c1be 5beb fabe
000000a0: a208 21bf dd56 54bf 345f febd 31bf 29bf
000000b0: b6d8 28bf fdc0 53bf 9207 a2be 6547 53bf
000000c0: 612e 8c3d a128 89be 0aa5 163e 12cc 36bf
000000d0: 0f5b e5be fa14 cabe 7d93 83bd a7e2 0bbf
000000e0: ab95 00bf 6efb bebf 6072 33bf 67b4 b83d
000000f0: 6376 38bf 7f2e a4be 4881 9dbe 7ed0 763e

conv4.1.running_var f4 [64]
1.7161479 1.9128683 2.737348 0.86222804 3.9531755 3.417234 1.6561894 3.3896394
0.5441308 2.8675036 0.6928592 0.5735404 3.7558343 1.7425833 1.979041 1.4468886
2.2908225 1.1063688 3.9045062 0.97366333 3.1676476 2.3136632 2.31378 0.67962027
3.3067691 2.209901 0.79429626 2.5184166 2.083207 3.348584 1.0033358 3.775025
0.47729594 1.7801749 3.5019622 1.3206162 3.4257693 1.7387244 0.42487103 2.2449005
2.221153 1.7581928 1.8611158 1.825092 2.7457905 0.6504874 2.1116297 4.7815943
0.581007 3.0367277 2.0324993 1.7348684 4.313182 2.111733 1.7802755 4.294812
3.2599158 2.869635 2.0151112 1.9813089 2.37239 0.90768903 3.3427389 1.7476403
00000000: bcaa db3f ded8 f43f b630 2f40 faba 5c3f
00000010: d400 7d40 f6b3 5a40 04fe d33f daef 5840
00000020: 284c 0b3f 2e85 3740 385f 313f 8bd3 123f
00000030: 975f 7040 f80c df3f 3751 fd3f a533 b93f
00000040: d69c 1240 7e9d 8d3f 6ee3 7940 0042 793f
00000050: bdba 4a40 0f13 1440 f914 1440 98fb 2d3f
00000060: 1ba2 5340 056f 0d40 0057 4b3f bd2d 2140
00000070: 4353 0540 334f 5640 4f6d 803f 029a 7140
00000080: 2260 f43e c5dc e33f 2620 6040 f409 a93f
00000090: ce3f 5b40 858e de3f b288 d93e 73ac 0f40
000000a0: 5f27 0e40 760c e13f 0b39 ee3f 9d9c e93f
000000b0: 08bb 2f40 5886 263f f124 0740 d202 9940
000000c0: e0bc 143f bf59 4240 7814 0240 2b10 de3f
000000d0: 9605 8a40 a226 0740 11e0 e33f 1a6f 8940
000000e0: 76a2 5040 1aa8 3740 95f7 0040 889b fd3f
000000f0: 3dd5 1740 4f5e 683f 6fef 5540 adb2 df3f
